…
ng back to regular HTTP download. For better performance, install the package with: `pip install huggingface_hub[hf_xet]` or `pip install hf_xet`\n"]},{"output_type":"display_data","data":{"text/plain":["model.safetensors:   0%|          | 0.00/268M [00:00<?, ?B/s]"],"application/vnd.jupyter.widget-view+json":{"version_major":2,"version_minor":0,"model_id":"6b2c8b118aca4d2cb6899fcce108239d"}},"metadata":{}},{"output_type":"execute_result","data":{"text/plain":["DistilBertForSequenceClassification(\n","  (distilbert): DistilBertModel(\n","    (embeddings): Embeddings(\n","      (word_embeddings): Embedding(30522, 768, padding_idx=0)\n","      (position_embeddings): Embedding(512, 768)\n","      (LayerNorm): LayerNorm((768,), eps=1e-12, elementwise_affine=True)\n","      (dropout): Dropout(p=0.1, inplace=False)\n","    )\n","    (transformer): Transformer(\n","      (layer): ModuleList(\n","        (0-5): 6 x TransformerBlock(\n","          (attention): DistilBertSdpaAttention(\n","            (dropout): Dropout(p=0.1, inplace=False)\n","            (q_lin): Linear(in_features=768, out_features=768, bias=True)\n","            (k_lin): Linear(in_features=768, out_features=768, bias=True)\n","            (v_lin): Linear(in_features=768, out_features=768, bias=True)\n","            (out_lin): Linear(in_features=768, out_features=768, bias=True)\n","          )\n","          (sa_layer_norm): LayerNorm((768,), eps=1e-12, elementwise_affine=True)\n","          (ffn): FFN(\n","            (dropout): Dropout(p=0.1, inplace=False)\n","            (lin1): Linear(in_features=768, out_features=3072, bias=True)\n","            (lin2): Linear(in_features=3072, out_features=768, bias=True)\n","            (activation): GELUActivation()\n","          )\n","          (output_layer_norm): LayerNorm((768,), eps=1e-12, elementwise_affine=True)\n","        )\n","      )\n","    )\n","  )\n","  (pre_classifier): Linear(in_features=768, out_features=768, bias=True)\n","  (classifier): Linear(in_features=768, out_features=2, bias=True)\n","  (dropout): Dropout(p=0.2, inplace=False)\n",")"]},"metadata":{},"execution_count":9}]},{"cell_type":"code","source":["# 3. Load dữ liệu\n","texts = df[\"review_clean\"].astype(str).str.strip().str.replace('\\n', ' ').str.lower().tolist()"],"metadata":{"id":"EVzckSBf5VQb","executionInfo":{"status":"ok","timestamp":1745911692376,"user_tz":-420,"elaps
…
